mask_trained.pth (torch, 570750 bytes, 10 tensors)

backbone.conv1.weight f4 [32, 3, 3, 3]
00000000: fb63 f3be 9ff0 6dbe 3bce 5fbe 8005 0ebe
00000010: bef5 22be dfb9 8bbd 8f12 c23e b7c6 bdbe
00000020: e9f6 0f3e 38bd e8be 8255 f43e 028c 4bbe
00000030: 7a43 aebe d410 e73c 6816 863e a08c 91be
00000040: ac7a e53d ff7f 633e 094e 893c 6f62 523e
00000050: 206d 9a3c 2b13 a4be 8932 003e 83e1 573e
00000060: b1c3 2fbe 7fc5 6f3e d866 763e 49fe bebe
00000070: 6622 18be c88c 72be 3648 5a3e 177d 0abf
00000080: 96b8 863e c577 63bd 6164 79be eba8 f53e
00000090: 149a a0be 7798 11be f4e8 453e 63cb babd
000000a0: e00e e33c 3a60 0bbe a4f4 563e 9ad5 8e3e
000000b0: e7d6 0c3e ce1d 40be bcc9 ce3e 5a27 cfbe
000000c0: 0c82 513e 12a6 203d 29e0 0ab9 1a4d b139
000000d0: 831b db3d fc17 b4be b653 e93e 6c9d c53d
000000e0: 6d3f 1c3e a5d9 2d3e 6712 dabd 0a25 023f
000000f0: 10a1 74be 29f1 cebe e363 f73c f2c6 ccbb
00000100: 1cc6 d83d 21ee 14bd c1e5 883d c95f d4be
00000110: c8d2 a0be e89a 963e 9661 41bf fbe9 26be
00000120: 9cf8 fb3d 52de 3f3e 528e 10be 175a 55bc
00000130: ce08 a4bb 3577 1c3e 40a5 87bd 36b7 53be
00000140: 625f bf3d 8dd8 d13e dccc d3be f8ce cd3e
00000150: 94d6 cdbd 42f4 8dbe 6b34 cdbe e887 17bf
00000160: 0a10 eabd 7d17 b1be c781 c8be faba 19bf
00000170: 0678 443e 1fcb 8bbe 6ca1 f5bd 2920 503e
00000180: ff54 b73d c041 f43e e2ba 723d 2c9a 2b3e
00000190: 17e0 ed3e 64d1 913e 5648 d33e 3e1c 533e
000001a0: 3d51 51be 24fb 963e d7de 7b3e 7cd8 083c
000001b0: 8385 013e ae98 b83e 271c 13bf b153 1abd
000001c0: 44fd 103e 46ad c23e 14cc 753e 0aef 89bd
000001d0: 51c8 103f 8354 8b3e 1cf7 acbe 2401 803e
000001e0: a717 3d3e ef58 39be f244 31be 5960 013e
000001f0: 8546 f83c 0f30 b6be f7c5 a1bc 5675 373e
00000200: 6b1a 203e 861d 843e 1471 99be 7680 f8bd
00000210: af36 e43d adff babe 508f cebc 3503 323e
00000220: b21f 793e 55ab 97bd a172 d8bc 3878 f5bd
00000230: 92a8 67be 3335 f2bb 485f 55be 7693 d0bd
00000240: bfd5 a3be a1c6 f23d b958 db3e 62a5 09be
00000250: 3971 403e b830 e03d df10 83bd b40b e33d
00000260: 6a22 bb3e 7ba4 1e3f 4a65 353d 5a3b 9c3e
00000270: dbc7 fabe c051 7c3d a408 c7bd def3 febd
00000280: 8116 a5be d4ea e8bd f3f1 5abd 5711 9c3e
00000290: 4b8b db3e eb1d 1cbe cc76 103f 93a8 813d
000002a0: 83fe e4bd de3c 97bd 9f71 033e ec83 923e
000002b0: 6264 6e3e e69e d03d 9ffd bf3c 07fd c63d
000002c0: 3bf2 9a3d 18d9 f7be b2b5 82be 4bab 123e
000002d0: 1d2f 9fbd adf0 27bf e389 52be ed83 04b9
000002e0: 4ddc 23be 0a8e b13e fb25 ad3e 5eea 3abe
000002f0: ba94 9c3e b817 813d 1034 00be 6056 2a3e
00000300: 53c9 42be cce2 fd3d 9a11 643d ae36 9c3e
00000310: f806 aebe 039e d13e 2a90 4a3d 1b23 a2be
00000320: 8964 ce3b 4853 133e 3483 0abe 9d4f 293e
00000330: dfb6 45be f21b 21bd fe03 8e3e 40ee a73d
00000340: 8821 a53d a837 543e 5eed c9bc def6 64be
00000350: efed 863e 718e 06be 9888 c13e 0f23 ee3e
00000360: c0a3 78bd d1e7 b5be 3d4d 4a3e b4aa 793c
00000370: c39f 10be 983f dbbe 26fc c4bc 8f7d 553e
00000380: 72bc bbbd 809b e63e 8302 0bbd b44e 013e
00000390: 6084 3bbf ed67 0b3f 84f4 533d 3aa9 173e
000003a0: bbbb eabe be43 12bf 64ef a53e 513e 3abb
000003b0: a5a8 843d 7d6e 0a3e 8f1d fd3d 1bd3 90bd
000003c0: 4feb 4dbe 0840 423d d16f c23e 9f83 4bbe
000003d0: c245 dfbe 0908 20bd 8ac8 beba 9d20 86be
000003e0: fae6 6e3e c915 d43e b7e9 8ebe fbe4 0d3d
000003f0: 3a60 48bb d1d3 da3c 3031 53be bd47 703e
-0.47537217 -0.23236321 -0.21856014 -0.13869286 -0.15914056 -0.068225615 0.37904784 -0.3706567
0.14059032 -0.45456862 0.47721487 -0.19877627 -0.34035856 0.028206266 0.2618897 -0.284276
0.112050384 0.22216795 0.016760843 0.20545362 0.018850863 -0.32045874 0.12519278 0.2108212
-0.17164494 0.23415183 0.2406267 -0.3730338 -0.14856872 -0.23686516 0.21316609 -0.5409712
0.26312703 -0.055534143 -0.24354698 0.47980437 -0.31367552 -0.14218317 0.19327146 -0.09120824
0.027717054 -0.13610926 0.2099176 0.2789734 0.13753854 -0.1876137 0.40388286 -0.4045971
0.20459765 0.039220877 -0.00013244212 0.00033817516 0.10698607 -0.3517455 0.4557168 0.096491665
0.1525857 0.16977556 -0.10648041 0.5083777 -0.23889565 -0.40418366 0.030198997 -0.006249302
0.10584661 -0.03635991 0.06684447 -0.41479328 -0.31410813 0.2941506 -0.7553953 -0.16300194
0.12303278 0.18737152 -0.14116791 -0.013021967 -0.0050059324 0.15279849 -0.06623316 -0.20675358
0.09344365 0.40985528 -0.41367233 0.40196967 -0.10050693 -0.27725416 -0.40079054 -0.5919175
-0.114288405 -0.34588233 -0.39161512 -0.6005093 0.1918641 -0.27303407 -0.119936794 0.20324768
0.089517586 0.47706413 0.059260257 0.1675803 0.4646003 0.28480065 0.41266125 0.20616242
-0.20441146 0.2948848 0.24596725 0.008352395 0.12648587 0.36053985 -0.5746483 -0.03767747
0.14159113 0.38022822 0.24003631 -0.06735046 0.5655566 0.27212915 -0.3378228 0.2500087
0.18466054 -0.18100332 -0.17311457 0.1263441 0.030307064 -0.3558354 -0.019747717 0.17915854
0.15635078 0.25803775 -0.29969084 -0.12133877 0.111432426 -0.3652319 -0.025214821 0.17384036
0.24328497 -0.07405726 -0.026421847 -0.119858205 -0.22622898 -0.0073915957 -0.20837128 -0.10184376
-0.31999013 0.11854292 0.42841128 -0.13441995 0.18793191 0.10946792 -0.06399702 0.110862166
0.36549693 0.6196973 0.04428605 0.30514032 -0.48980603 0.0616014 -0.09718445 -0.12448858
-0.32243732 -0.11372915 -0.053453397 0.3048198 0.4287971 -0.15245788 0.5643127 0.06330981
-0.11181357 -0.07384656 0.12836312 0.28616273 0.2328048 0.101865575 0.023436366 0.0971623
0.07565733 -0.48407817 -0.25529248 0.14323156 -0.07772658 -0.6560162 -0.20560412 -0.00012637647
-0.16002007 0.3467868 0.3381804 -0.18253466 0.3058222 0.06303352 -0.1251986 0.16634512
-0.19022112 0.12396774 0.05568085 0.30510467 -0.33989692 0.40940866 0.04945389 -0.31667408
0.006298606 0.14387238 -0.13526613 0.16534276 -0.19308041 -0.03933329 0.2773742 0.081997395
0.08063036 0.20724356 -0.024649318 -0.22359797 0.26353404 -0.13140275 0.37799525 0.46511123
-0.06070304 -0.35528424 0.19756027 0.015238453 -0.14123444 -0.42821956 -0.024046015 0.20848678
-0.091668025 0.45040512 -0.033937942 0.12627679 -0.73248863 0.54455453 0.05174686 0.14810649
-0.45846352 -0.57134616 0.32409203 -0.002841849 0.06477479 0.1351871 0.123591535 -0.07071515
-0.20109294 0.047424346 0.37975934 -0.19874428 -0.43607908 -0.039070163 -0.0014555615 -0.26196757
0.23330298 0.4142287 -0.27912685 0.0346422 -0.0030574934 0.02671233 -0.20624232 0.23464866

backbone.conv1.bias f4 [32]
00000000: c0fe 2831 284e 14ba e8f2 c5b9 3845 6b3a
00000010: 5027 603a 509d 4839 4b95 cfba 1ea4 c6ba
00000020: cfb1 963a dbcf 0d31 26bd 49ba cb5d 17ba
00000030: 9033 bd3a 7faa ccba 1667 6c3a 4d94 61b9
00000040: ed34 8aba b08a 6bb8 676d 08ba f7c3 a539
00000050: 611b f1b9 ef13 1937 1b28 33ba 6b03 ad3a
00000060: 1245 01ba 5b49 25ba 9c67 73ba 85cc ec39
00000070: 0a7a 453a 5501 5b3a 8a52 c9b8 b500 aaba
2.4592026e-09 -0.0005657398 -0.00037755747 0.0008974853 0.000855078 0.0001913209 -0.001583734 -0.0015155112
0.0011497083 2.0636353e-09 -0.0007695727 -0.0005774169 0.0014434922 -0.0015614777 0.00090180465 -0.00021512918
-0.0010544338 -5.615753e-05 -0.00052042905 0.00031617258 -0.000459875 9.124152e-06 -0.0006834284 0.0013199871
-0.0004931252 -0.00063051813 -0.00092851534 0.00045165807 0.0007533139 0.00083543855 -9.599801e-05 -0.0012970181

backbone.conv2.weight f4 [64, 32, 3, 3]
00000000: afa4 c33c 6982 56be 2f2b b5bc 2a58 16bd
00000010: fd10 25bd f247 763d 3319 683d fbe0 54bd
00000020: 7202 6c3d aca1 eb3c fa17 9bbd 323d 073e
00000030: ae7f f03d d0fb 143e d4ef 9dbc 8f67 d5bd
00000040: 4016 f53d 16fe 643e b5e4 78bd de6a cabb
00000050: 23ad bf3d 050f 793d 9483 843c 0d4d 1d3d
00000060: 4876 613c 0ecb a0bd 903d e43d 25b6 783d
00000070: c32b 483d 91fd 4fbd e594 5c3d ada3 9d3d
00000080: 0069 963d 7bf5 93bd c11a 13be ed58 883c
00000090: 1f3e 68be 4847 e23d 04a2 6fbd edc4 cfbd
000000a0: 755e 80bd 1a45 363d 8aa8 0fbb 4017 4ebd
000000b0: 3571 62bd 4497 d73b 05e5 4a3c 10e0 c63d
000000c0: 8afe f2bc e601 92bd 5266 29bd 7a93 35bc
000000d0: 91be 61be 3339 0e3d f8ca d23c b47f 15bd
000000e0: 03cf 1abe f35a 21bd fc22 1d3d f7e8 dbbd
000000f0: cda9 abbd 4099 77bd bc91 8abd d16a 393d
00000100: 27dd 61bd f274 be3d ea27 48bc 3d3a 98bd
00000110: 5513 013e 774e b73d 5034 643d a0b3 dbbd
00000120: 0ea6 b03d 9793 b2bc 8312 b3bd e888 043e
00000130: b2be 04bb af89 563d fded 953d baf0 333c
00000140: 70d0 2d3d e118 e83c 6a5a a93c be21 8bbd
00000150: 02d4 573d 6605 b83d 25e2 8fbd 1990 8f3d
00000160: bb72 febc 2d92 abbd 54e2 093e 94cf 5abb
00000170: c839 723d b53a 19bd ffaf 51bd c3ff a23c
00000180: ade9 84bc f9d8 41be 4d04 cebd 3f4a ebbc
00000190: c9a7 063c a5bf d1bd 74e7 523d fad9 cd3d
000001a0: 4ca4 db3d 208e 87bd d990 bf3d 1e41 3cbd
000001b0: 0f5f 993c 1462 c33c 6773 0dbd 9b4d bcbd
000001c0: a14e c4bc 1871 ee3d 7d14 0e3d 330d 6ebd
000001d0: ca29 0a3d 4773 54bd 8d2f cc3c c550 dabd
000001e0: 22b5 073c d3d4 e8bc 53dd a2bc d6d9 1a3b
000001f0: 8888 573e c3ba 2b3c b14f c83d cbe1 1dbd
00000200: 7988 dc3d 3530 c73c 85f2 fd3d 452f 223c
00000210: 577f 453d c84f 863d f5b4 653d 1945 3b3e
00000220: f8f7 2cbd b04a 8f3d b7bb 93bd 5ec6 aebd
00000230: cea0 b33d 95f7 893d 525e 18be 4adb 53bd
00000240: 2532 47be 2d88 47bd 06f1 8b3d 74ef 0dbd
00000250: f4e3 2cbd d1ca 38bd fafd 453c 6c91 153d
00000260: 58e8 cf3c bc05 533e 99ed 3ebd 3ed0 213d
00000270: 4478 093c 6713 1bbe c545 5839 e556 90bc
00000280: 6f70 7a3d 1f5d d5bb 6617 9d3d 3929 0c3d
00000290: b7a4 503d b229 9f3d a110 60bd 2c94 64bd
000002a0: 7f3a c53c 6548 dfbd 87cb 613d 41dc 4dbd
000002b0: cee1 c73d 886d 3bbd 4e8c 96bd 22b6 ca3c
000002c0: a008 5f3c a885 ddbc 4252 19be ab97 49bc
000002d0: 7519 97bd f7cf bfbd 996a 10be 61c1 1a3d
000002e0: edb4 893d f08b a7bc 1101 dc3c eb1d 4bbb
000002f0: c11e 423d a58c 033d 1d9c 693c e4c8 933d
00000300: f0b0 1cbe c9d5 e73d edbc c23b 8e9a 67bc
00000310: 0441 05bd aa95 dbbd d27e 5ebc 654c b0bd
00000320: 68b2 cb3d e792 02bd c3b5 c63d c6e0 19be
00000330: 1107 0d3e 7027 d7bb df58 b63d 09a3 9dbd
00000340: 0864 59bd f12b 1bbd 27f4 a9bc 87b1 f03d
00000350: 5b4c 0ebd 5c25 0dbe aad7 3ebd e32b a5bc
00000360: 6d4b 053e 7ab6 fb3b ab3a 9fbd 3f4d 863c
00000370: bb82 af3c e9e2 f5bd d1b9 21bc f5ca 023d
00000380: 84d7 29be 77ab 87bd f044 9abd 53f9 9ebb
00000390: 0178 413d 0b5d b8bc c13d 633e 8b7f 8a3d
000003a0: a38e c1bd e834 963d 8ed4 5a3b aa5c 3dbe
000003b0: f82b 3fbd 4838 dc3d 7e28 9cbc 8a46 eabd
000003c0: 51ba 353e 27cf 303c 3c46 a4bc 3a8a 653d
000003d0: e434 033c e893 a3bd b761 193c 0563 3b3d
000003e0: 8a8f 863d 047d 9e3d 1a2e 643d a6fa 5e3d
000003f0: e4de 1e3e 7392 2cbe d7a9 d7bd a6b3 7b3d
0.023882238 -0.20948185 -0.022115318 -0.036705174 -0.040299404 0.060127206 0.056664657 -0.05197237
0.05761952 0.028763615 -0.075729325 0.13206938 0.11743103 0.14549184 -0.019279398 -0.10420143
0.119671345 0.22362551 -0.060764987 -0.0061772903 0.09359195 0.06080534 0.016176023 0.03840356
0.013761111 -0.078512296 0.111445546 0.06072058 0.04886986 -0.05077893 0.053852934 0.07697234
0.07344246 -0.07224556 -0.14365675 0.016643966 -0.22679947 0.11048752 -0.05850412 -0.101449825
-0.06268016 0.044499494 -0.0021920525 -0.05031514 -0.055283744 0.0065793116 0.012383704 0.09710705
-0.02966239 -0.07129268 -0.041357346 -0.011082524 -0.22045352 0.03472252 0.025731549 -0.03649874
-0.15118031 -0.039393377 0.03836344 -0.10737794 -0.08381996 -0.060448885 -0.06766078 0.045267884
-0.055142548 0.09299649 -0.0122165475 -0.07432983 0.12605031 0.08950513 0.05571395 -0.1072762
0.086254224 -0.021798892 -0.08743765 0.1294285 -0.0020255265 0.0523774 0.07320783 0.010982687
0.04243511 0.028332176 0.020672996 -0.06793545 0.05269242 0.08985405 -0.070255555 0.07009906
-0.031060567 -0.0837749 0.13465244 -0.0033387886 0.059137136 -0.037409503 -0.051193234 0.019897347
-0.016224707 -0.18930425 -0.10059414 -0.028721927 0.008218714 -0.102416314 0.051490262 0.10051341
0.107246965 -0.06618905 0.093537994 -0.045960538 0.018722085 0.023850478 -0.034533884 -0.091944896
-0.023963274 0.11642665 0.034687508 -0.058118057 0.03373126 -0.05186775 0.024925018 -0.10659937
0.0082829315 -0.028421795 -0.019880926 0.0023628375 0.21048176 0.010481539 0.09780825 -0.03854541
0.107682176 0.02431498 0.123997726 0.009898965 0.048217144 0.06558186 0.056080777 0.18288077
-0.04222867 0.069966674 -0.07213538 -0.08533929 0.087709054 0.06736676 -0.1487973 -0.051722802
-0.19452722 -0.04871385 0.06833081 -0.03465219 -0.04220958 -0.045115296 0.0120844785 0.03651564
0.025379345 0.20607656 -0.04661331 0.039505236 0.00839049 -0.1514412 0.00020625356 -0.01761956
0.06114238 -0.006511345 0.076704785 0.034219 0.050938334 0.077716246 -0.05470336 -0.05580537
0.024075745 -0.1090248 0.05512574 -0.05025888 0.09759866 -0.045758754 -0.0735098 0.02474505
0.013612896 -0.027041271 -0.14972785 -0.012304227 -0.073779024 -0.09365838 -0.14103164 0.037782077
0.06723962 -0.02045247 0.026855977 -0.0030993174 0.04739261 0.03211655 0.014258412 0.07216051
-0.15301871 0.11320073 0.005942932 -0.01413597 -0.032532707 -0.107219055 -0.013580041 -0.08608321
0.09946138 -0.03187838 0.09702637 -0.1502715 0.13772227 -0.0065659806 0.089036696 -0.07697112
-0.053073913 -0.037883703 -0.020746304 0.11752611 -0.034740787 -0.13783783 -0.046592392 -0.020162528
0.13017054 0.007681665 -0.07774862 0.016394256 0.021424642 -0.1200617 -0.009870962 0.031931836
-0.16586119 -0.06624501 -0.0753268 -0.004851499 0.047233585 -0.022505304 0.22191526 0.06762608
-0.09451034 0.0733431 0.0033390853 -0.1849238 -0.04667279 0.10752922 -0.019062277 -0.114392355
0.17746855 0.0107915765 -0.020053022 0.056040026 0.008008216 -0.07987195 0.009361676 0.04574873
0.06570347 0.077386886 0.05570803 0.054438256 0.15514714 -0.16852741 -0.10530441 0.061450623

backbone.conv2.bias f4 [64]
00000000: 9f7f f9b9 9ff6 ef3a 6ea2 85ba ff52 9ab8
00000010: afbf f639 fb08 6439 d8ee 813a 4111 82ba
00000020: 5e49 f83a fd1d 853a cd0e 023a 65b2 97ba
00000030: b5e6 ecb9 4533 9cba d065 f83a 8b18 e5b9
00000040: c133 c339 cb96 16ba 22ee 92ba 757f 993a
00000050: ae86 db3a be23 de3a 9fd0 9eba 88f6 b43a
00000060: 9c47 db3a 93e8 f6b8 8aff e93a 9524 c1b9
00000070: 678b 0bba 984c 6e3a 3837 83ba ef32 32b8
00000080: 8136 973a 1e62 c43a ca7d e4b8 b2bb 8bb9
00000090: 14eb 1eba c3f8 c63a 297b 76ba 5e51 43ba
000000a0: 9306 b03a a260 5638 6e8f afba bdb8 c6ba
000000b0: 7474 da39 3c3e dbb9 ab24 3b3a 82a6 9dba
000000c0: 7d67 183a 4439 083b 5b25 0dba 421c a5ba
000000d0: c14d 16b9 7d03 83ba 07ed a0ba 287d 4bba
000000e0: cad6 84ba b515 43ba c60d bbba 028e 583a
000000f0: 79ac c9ba ac89 5aba 569e 033a 7086 c5b9
-0.00047588066 0.0018307752 -0.0010195503 -7.3587515e-05 0.00047063592 0.0002174712 0.00099131 -0.0009923355
0.0018942764 0.0010156032 0.0004961312 -0.0011573551 -0.00045185318 -0.0011917135 0.0018951241 -0.0004369657
0.00037231858 -0.0005744516 -0.0011209885 0.0011710959 0.0016748512 0.0016947908 -0.0012116617 0.0013806382
0.0016729715 -0.000117735144 0.0017852646 -0.00036839084 -0.0005323202 0.0009090393 -0.0010010963 -4.2485943e-05
0.0011536629 0.0014982854 -0.00010895317 -0.0002665199 -0.0006062251 0.0015180338 -0.00094025076 -0.00074507843
0.0013429694 5.1111572e-05 -0.0013394186 -0.0015161257 0.00041666965 -0.00041817303 0.0007138948 -0.0012027773
0.0005813761 0.0020786086 -0.00053842895 -0.0012596922 -0.0001433408 -0.0009995546 -0.0012277671 -0.0007762485
-0.0010134813 -0.0007441894 -0.0014271073 0.0008260907 -0.0015386484 -0.0008336555 0.00050208473 -0.00037674932

backbone.conv3.weight f4 [128, 64, 3, 3]
00000000: dc51 653c 5ede 7dbd 8aee aebd 9e6a dabc
00000010: fa8a 213d 62c5 4bbd 1870 41bc 3add 023c
00000020: 560a 34bd 0e75 19bc 85a4 0ebc d3d0 d83c
00000030: 7348 4d3d b700 ff3c f8bf a33c 81c0 b63c
00000040: 5325 97bd e2e0 823d 2de4 fbbb 7ec8 e33d
00000050: 1096 bc3d 3294 d9bd 0902 9d3d c498 2bbd
00000060: 8f1d 6cbc b849 4bbd 35cf cd3c 0cf9 77bc
00000070: a0aa 02bd 557d 33bd e58c eebc 10b7 37bd
00000080: fcee a43c 9a5d 653d 497e a1bc fdad c93b
00000090: 4ae3 253d 3174 ad3d f97e 433d cb33 0fbd
000000a0: bed2 59bd e6d6 593d d64b a8b8 b623 963c
000000b0: b356 ac3c 7fbe 5dbb be58 733d 0593 69bd
000000c0: 533d 803d c0ab 8dbd e58b ffbc 887e 63bd
000000d0: 0f88 15bc 33f7 84bd d26d 2abc 1b8e 31be
000000e0: 6f4f d03c f63b db3c 07b1 23bd 6baa a6bc
000000f0: 4383 0c3b ade3 883d 7cf3 88bd 85d2 fbbc
00000100: 7b02 c5bc a7ae ce3b 44b2 663d 2036 4fbc
00000110: a91c 2e3c c8be 82bd 1adf cebd c5f0 13bb
00000120: fdd2 79bc e44b 1d3d 97bf 193e 086b fd3c
00000130: 34a9 8e3d 391a bfbc f6ce 97bd 7e84 b13d
00000140: dc89 43bd 7b4d a8bd 9a74 703b 942b 02bd
00000150: 87b0 acbd 722c 403d 9a48 1fbd bd31 1bbe
00000160: 5614 22bd db3c b2bd 64e2 4d3c 790c aa3c
00000170: 2714 923d fb5e b6bd 737c 2c3a a907 8ebc
00000180: 6a89 cbbc 42a6 123c 2bf9 7bbd 1b08 4cbc
00000190: f504 403c 2f38 52bd 55db 163d bc4a a0bd
000001a0: 6688 c53b a083 57bd 12cc ba3d 5d8b 143d
000001b0: 4c94 e43d 6cab cabc bbf7 3a3c 8889 233d
000001c0: e383 7ebd f3ef bbbc 1a8f 583d fd89 173e
000001d0: 591c 3cbc b691 a1bd 0947 3a3d e8b5 4abe
000001e0: 9967 6bbc d0f0 6a3c 4b7b f43c 753d 233b
000001f0: c95f 69bd 8b31 18bd d577 6e3c 39d9 433d
00000200: c03e 0bbd a081 38bc 0990 b03c c944 22bc
00000210: 03bf 003c 1a3f 99bd 9790 1c3c e075 13be
00000220: 1e13 323c e299 a7bd 7199 733d 4e63 f43c
00000230: 982b b8bc 8cdf 9fbd d08f 68bd 9412 af3c
00000240: 2059 9cba 0d7a 27bd 108d fdbc 593c 073e
00000250: 5d62 79bd 3ab4 dd3d 81c1 323d acd5 293d
00000260: f0b2 083c 0cfd 62bc 652f eabc d307 5bbd
00000270: 3490 c9bc 4a9c 453c 2bc3 a03c c27e 8f3c
00000280: 597a b5bd bcf0 8a3d 8692 96bd 401d 803d
00000290: adbe 50be 1f07 39bd 509a 80bd 96c8 ca3c
000002a0: cfaf 35bd 001c dfbc 7e05 d8bb 812c ce3c
000002b0: 23ac 4d3d ce0e 75bc ae13 1cbd ed7e a9bd
000002c0: 5b41 dbbb edd3 92bd 55cb 53bd 4471 19bd
000002d0: 3ae5 403d 4144 24bd 5c4b 173d 7e51 493d
000002e0: 4238 afbd 21ef 47bc bf44 f13d 6212 433c
000002f0: 64c2 1f3e f0d5 58bd 5183 bdbd e458 3fbb
00000300: 5f81 6f3d 0f16 9fbd c274 893d 8a0d a73c
00000310: 1872 b33d df64 8dbd 616f b73c 4a56 9cbc
00000320: 91e0 8a3c 4ca2 903d ac89 96bc 8a30 16bd
00000330: c667 a23b 4fba 803d 8035 0d3b d02d 6ebd
00000340: 5888 02bd eb15 8bbd d6f4 3f3b 3bb7 513d
00000350: c5dc a2bc b3b5 b7bb 3f88 863a 55a8 f5bb
00000360: 522f 113c 19e1 00be c091 f53d 8877 40be
00000370: 1eed d5bb 0ecd c93c 6525 f03c 0853 aa3b
00000380: c6b6 03be 73cb 683d 1e33 20bc 65d0 c1bd
00000390: 9d84 ac3c 425c 483d 30b5 4a3a ed6f 0ebe
000003a0: 366c 16bd a563 043a e001 acbd 3315 233c
000003b0: 0498 07bd 03b3 5b3c 3dba f5bc ff3a a13c
000003c0: 537f 19be b0c9 1cbd 126c 9f3b 2b5c d4bc
000003d0: 5465 a13d 5567 fc3c 7aa8 babc 7999 57bd
000003e0: 69be 09bd b0b6 453c fb26 4f3c d073 fbbc
000003f0: 3e40 823c 098e 533c adf8 24bd 0234 293d
0.013996568 -0.061979644 -0.085415915 -0.026662167 0.03943918 -0.049748786 -0.01180651 0.007987315
-0.04395517 -0.009366287 -0.008706217 0.026466763 0.05011792 0.03112827 0.019988999 0.02230859
-0.07380166 0.06390549 -0.007687113 0.11122225 0.0920831 -0.10623969 0.07666404 -0.041893736
-0.014411344 -0.04963085 0.025123218 -0.015135061 -0.031901002 -0.043820698 -0.029119918 -0.044852316
0.020133488 0.05599747 -0.019713538 0.006154774 0.040499963 0.084694274 0.047728512 -0.034961503
-0.053179495 0.05318346 -8.02499e-05 0.018327575 0.021037435 -0.0033835468 0.059410803 -0.057024974
0.06261697 -0.06917524 -0.031194637 -0.05554059 -0.009126677 -0.06492462 -0.01040216 -0.17339365
0.025428502 0.02676199 -0.03996375 -0.020344933 0.0021440543 0.06684051 -0.06687066 -0.030740032
-0.024049034 0.0063074413 0.05632235 -0.012647182 0.01062695 -0.06384045 -0.10101147 -0.002257393
-0.015248057 0.038402453 0.15014492 0.030934826 0.06965867 -0.023327934 -0.074125215 0.08667849
-0.047738895 -0.08217903 0.0036690594 -0.03177984 -0.084321074 0.046917386 -0.038887598 -0.15155692
-0.039570175 -0.087030135 0.012566183 0.0207579 0.0713275 -0.08904835 0.00065798237 -0.017337637
-0.024845798 0.008950772 -0.061516922 -0.012453104 0.011719932 -0.051323112 0.036830265 -0.078267545
0.006028223 -0.05261576 0.091209546 0.03626572 0.11161098 -0.024739943 0.011411603 0.039926082
-0.062137496 -0.022941565 0.052870847 0.14798732 -0.011481368 -0.0788912 0.0454779 -0.19795954
-0.014367961 0.014339641 0.029843947 0.0024908457 -0.056976113 -0.037156623 0.014554937 0.04781458
-0.03399539 -0.011261374 0.021553056 -0.009904095 0.007858041 -0.07482739 0.009555957 -0.14400434
0.010868816 -0.08183648 0.059472505 0.029832508 -0.022481725 -0.0780631 -0.056777775 0.021371163
-0.0011928417 -0.04088788 -0.030951053 0.13206615 -0.060884822 0.10825391 0.04364157 0.04146354
0.008343443 -0.013854276 -0.028587053 -0.05347426 -0.024604894 0.012061188 0.019624313 0.017516498
-0.088612266 0.06784198 -0.07352166 0.06255579 -0.20385237 -0.045172807 -0.06279433 0.02475385
-0.044357117 -0.027235031 -0.0065924516 0.025167705 0.05021299 -0.014957143 -0.038104706 -0.08276162
-0.0066911406 -0.07169328 -0.051707584 -0.037461534 0.047093607 -0.040104154 0.036937103 0.049149983
-0.08555652 -0.012203009 0.117806904 0.011906238 0.15601498 -0.0529384 -0.09253562 -0.002919727
0.058472987 -0.07767879 0.06711723 0.020392198 0.08761996 -0.06904005 0.022391977 -0.019084115
0.016952785 0.07062206 -0.018376194 -0.036667384 0.0049562184 0.062855355 0.002154678 -0.05814916
-0.03186831 -0.0679129 0.002929022 0.051200133 -0.019880662 -0.005606377 0.0010263993 -0.0074968734
0.00886138 -0.12585868 0.1199069 -0.18795598 -0.0065285107 0.02463391 0.029314706 0.0051978864
-0.12862691 0.05683465 -0.009777812 -0.09463576 0.021059329 0.04891611 0.00077326875 -0.13909884
-0.03672429 0.00050502486 -0.08398795 0.009953785 -0.033103958 0.013409379 -0.029996032 0.019681452
-0.14989977 -0.03827828 0.004865178 -0.025922855 0.07880655 0.030810991 -0.022785414 -0.052636597
-0.033628855 0.012067482 0.012643571 -0.030694872 0.015899774 0.012912282 -0.04027622 0.041309364

backbone.conv3.bias f4 [128]
00000000: c556 b3ba c85d c73a 4a8e 043b 0fc9 3aba
00000010: 7c45 b8ba 73de c33a 8d0c bd3a fc4e c73a
00000020: 2fe5 d13a 44ba e73a ac86 abba e6e7 d33a
00000030: 86a6 cc3a 3076 c6ba a74d a6ba 91ab a9ba
00000040: ca7c 913a eacd e43a 0f07 a63a 382a 31ba
00000050: 1076 89ba a02c 29ba 7762 913a a984 afba
00000060: 4a08 86ba a5ca 9fb9 2846 0bba 3021 713a
00000070: 156c fb3a 261c ba3a f319 023b 96b1 fb3a
00000080: cf9e 8939 7976 2d3a df2b b23a edc4 2cba
00000090: 3565 c13a 13f0 b8ba 5186 c83a e451 e13a
000000a0: ae0e deba 18a9 92ba f7a6 cbba cc0d ef3a
000000b0: cd15 f93a 694f a5ba a175 c2ba 79f2 6b3a
000000c0: 0a15 2f3a df8b 983a 0da7 d13a 578e 50ba
000000d0: 8899 d6ba 539f 8fba 0d55 a83a 2aec 8e3a
000000e0: 7cbd cfba b3a3 a639 8523 dbba 5628 40ba
000000f0: aa3d 98ba e82f ceba a3c3 deba f31a e93a
00000100: a290 26ba b21a ccba 69ac 86ba 987b b8ba
00000110: f9fa 1b3a f883 053b 7816 ce3a 46c1 2439
00000120: baaa c9ba 2495 6d39 a1d9 8e3a ca8c 643a
00000130: a15d 7eba 98cd aeba eee6 ea3a bac0 f73a
00000140: dd35 4bba a2a2 4bb9 93f2 c9ba ac7e e33a
00000150: 8fdb a0ba 0bd2 f937 cf7e 7eba 7b4b 993a
00000160: dd2c 55ba 81df 74b8 18ab 88ba 2d78 62ba
00000170: e5fb 7bba 1e36 1fba daef 14ba 629e 2a3a
00000180: 9885 003a 2103 baba 53ab 233a e1df 2d3a
00000190: 6277 3bba 63ed 83ba 8e9f 0cb6 5dc0 b43a
000001a0: a5eb df3a 3b94 bbba 6f03 54ba a85e 54ba
000001b0: 836c 9aba be75 c5ba 86f5 0eb9 1347 63ba
000001c0: 4276 d63a c0ff e03a 539c 21b9 a5cb da3a
000001d0: 8947 f7b7 3d05 93ba 179a e13a 4f26 6a3a
000001e0: 5f83 fc3a a60c c13a d564 cfba e810 b5ba
000001f0: c5ef b0b9 edf0 24ba 57de cdba 98ac 69ba
-0.0013682476 0.0015210444 0.0020226412 -0.0007125297 -0.0014058794 0.0014943614 0.0014423296 0.0015206034
0.0016013737 0.0017679413 -0.00130864 0.0016167134 0.0015613593 -0.0015141424 -0.0012687937 -0.0012944808
0.0011099812 0.0017456387 0.0012666899 -0.0006758305 -0.0010487456 -0.0006453488 0.0011091967 -0.0013390976
-0.0010225859 -0.00030477825 -0.00053128833 0.0009198366 0.0019181991 0.0014199063 0.0019851893 0.0019202705
0.00026248998 0.000661708 0.0013593397 -0.00065906235 0.0014754893 -0.0014109634 0.0015298818 0.0017190543
-0.0016941631 -0.001118931 -0.001553743 0.0018238365 0.001900369 -0.0012612167 -0.0014836082 0.000900067
0.0006678855 0.0011638365 0.001599522 -0.00079557806 -0.001637266 -0.0010957516 0.001284273 0.0010904123
-0.0015849317 0.00031783953 -0.001671896 -0.0007330229 -0.0011615057 -0.001573083 -0.001699556 0.0017784521
-0.00063539494 -0.0015571921 -0.0010274771 -0.001407492 0.00059501786 0.002037285 0.0015723249 0.00015712259
-0.0015385963 0.0002265764 0.0010898599 0.0008718489 -0.0009703283 -0.0013336418 0.0017921606 0.0018902041
-0.00077518617 -0.00019420174 -0.0015407376 0.0017356477 -0.0012272465 2.9780922e-05 -0.0009708227 0.0011695469
-0.00081319903 -5.8382288e-05 -0.0010426966 -0.00086391234 -0.00096124253 -0.0006073433 -0.00056814926 0.0006508586
0.00049027195 -0.0014191606 0.0006243486 0.0006632787 -0.00071512733 -0.0010065254 -2.0954499e-06 0.0013790239
0.0017083777 -0.0014311144 -0.000808767 -0.0008101263 -0.0011781607 -0.0015064997 -0.0001363364 -0.00086699537
0.0016362148 0.0017166063 -0.00015412392 0.0016692771 -2.9478006e-05 -0.0011216771 0.001721206 0.00089321
0.0019265226 0.0014728501 -0.0015822897 -0.0013814243 -0.00033747978 -0.0006292004 -0.0015706521 -0.0008913963

head.cls_conv.weight f4 [18, 128, 3, 3]
00000000: 6eaa 933d 61ef 02bd fc0e 3d3c 238a 433d
00000010: 9d98 0d3d fe95 003c d1d3 1dbd 591c 4bbc
00000020: 0d8c 413b 6385 0dbd 7e49 c73b e693 843d
00000030: 08bf cf3c 14ab 173d 43e8 a2bc f9f9 09bc
00000040: 3a98 fd3c 455e 3c3d 0d90 b5bd c30b b9bc
00000050: 4a76 82bd 972a 213d 0cae 533c 1072 be3d
00000060: 6152 0cbe 7389 a7bd 7921 ac3d 4467 0e3d
00000070: 7c68 82bd 9427 9fbd a98a a33d 4bb7 91bd
00000080: b6b8 a1bd a357 9fbc 32ab a8bb 197b 9fbb
00000090: 9432 88bd 187f 0b3b 6030 9abd d0f5 923d
000000a0: 03dc 6c3d 06e5 483d c52e 183d 78db fabc
000000b0: 228d b0bc 4584 f23c d55b 4abc 9c99 8a3d
000000c0: d4eb df3c 05b1 00bc 50bd 103d b4f6 31bd
000000d0: d98f 6539 bbf4 913d 9aa9 1e3d 676a 853d
000000e0: cce4 8fbb d0f7 213c 96d8 bd3c 2282 ad3c
000000f0: b5ca e1bc e3d2 80bd c1e4 223c 6a21 ee3c
00000100: e349 f23b 1541 203d 9da7 a9bd 17cc 703c
00000110: de3c 94bb 1460 4cbd 3956 d3bb c1d7 703d
00000120: cb12 1d3d 01a0 333d 1a77 203c 06a6 963c
00000130: b909 ae3c f939 033c 0ac9 0cbd e00b 243d
00000140: 2d25 e33c 4186 e7bc 2bd9 fa3c 8f07 79bb
00000150: 9ffb fd3b 99e9 0cbd b6d2 24bd f43d 0abd
00000160: 2a04 fcbb 98a3 903d 7278 003d b3e5 0d3d
00000170: eeae 3d3d 8f9e 58bd 5584 88bc 6da2 09bd
00000180: 81eb 403c e636 a63c cc53 9ebb 15a4 043d
00000190: 562b 033b ca53 b13c 1c4a b6bd 34a6 a3bb
000001a0: b447 013d 3ab6 243d c90c 76bc 58fa 82bd
000001b0: e270 15bd ab3e 03bd cab1 223d f2de 883b
000001c0: 1635 69ba ec90 d1bc 0f3c 4ebb e2c5 e8bc
000001d0: 0ecf 5ebb 5a67 96bd 5f1d 90bd 2c64 e13b
000001e0: 1631 e83d e551 9cbb 66e7 8f3d 6479 193d
000001f0: 8f51 81bc c8b2 86bb f45c 553c 5fe7 ae3d
00000200: 28df 803d 7983 bf3c a963 a5bb 8287 a0bc
00000210: 6e2c 9a3d 53bc eebc 7a4a ce3d 21d6 49bc
00000220: 3e00 0dbc f8e6 5b3b 22c0 c7bd 8b6e b63c
00000230: f5e6 dc3c ee9d a63b bce6 9abc b5b7 f4bc
00000240: 229d 953c 00f7 423d 6556 2ebd 3ede 50bd
00000250: 04d5 13bd ea85 59bb 7ce7 11ba 516d 233c
00000260: f922 183d e6d5 7a3c 3b66 c0bd 7567 2c3d
00000270: 7942 b83c 14f8 14bd a405 acbc ebf3 40bd
00000280: 8193 ad3d f1e3 3c3c 1de7 843c db46 e33c
00000290: f1f1 923c 861a 8ebd 7a4e c3bc 982e 32bd
000002a0: b2b5 1f3c bc2c e63c 30d4 65bd f264 ef3b
000002b0: 9139 48bd bb6b b3bc 2613 d23c 6ac4 503c
000002c0: 4be4 bb39 4b25 f13c 5ad3 f43c 30aa e73c
000002d0: 9297 8e3b 44d1 a73c 81d6 f2bc 0307 703d
000002e0: b8d7 f6bb cc7d b8bd 3608 373d 3ac1 013b
000002f0: f0bb 9d3c 3a74 de3d 3ee7 0d3d 1aa2 1cbd
00000300: ce6e d1bc fc3a 98bc cd78 9b3c 7cd5 debc
00000310: 5b39 243c 348a d5bc f5f4 c93d 402c f33c
00000320: 1443 dbbb 9896 1cbc ec41 49bc c75f f53c
00000330: 6576 923c 1afb 643c f2f9 8bbd 5100 ba3d
00000340: 1062 f63d 40a7 06bd 03d7 2cbd 0fdd a03c
00000350: 55ab d83c 7b59 f8bd 6e2d 163d 5416 323d
00000360: 57bd 1cbc 967f e6bc 2ba4 aabc 814c cbbc
00000370: e918 a8bc 706a a9bc e07c d0bc c9b8 e83c
00000380: afc6 2f3d 8dd6 16bd 75bc fabc 358f 613d
00000390: 7322 04bd 98c3 56bb f17c 80bc 7c14 823d
000003a0: 250a 80bd 586e d9bc d246 963c 8444 14bd
000003b0: ec15 6cbd a955 25bb 0e54 39bd 14d8 5d3c
000003c0: 9eaf 8bbd e68f 543d 5012 24bc 9f5c 2bbd
000003d0: e481 8f3b fb38 293d e64f b23d 789a 973c
000003e0: 56fe 933d 5d4d 773d cf3d 4a3d 48d4 063c
000003f0: 0b09 82bd 33ab 8dbd ffbe f8bb 262d a3bc
0.07210241 -0.03196657 0.011539217 0.04773916 0.03456937 0.007848261 -0.038532082 -0.012396895
0.002953294 -0.034551036 0.006081759 0.06473522 0.025359645 0.037028387 -0.019886142 -0.0084214145
0.030956376 0.04598834 -0.08865366 -0.022588616 -0.06370218 0.039347257 0.012919914 0.092990994
-0.137033 -0.08180513 0.08404822 0.03476645 -0.06367585 -0.07771221 0.07985432 -0.071150385
-0.07896559 -0.019450968 -0.005147361 -0.0048669693 -0.06650272 0.002128547 -0.07528758 0.07175791
0.057827007 0.04904654 0.037153978 -0.030622229 -0.021551672 0.029604087 -0.012350996 0.0676758
0.027334131 -0.007854705 0.035336792 -0.043448165 0.0002189273 0.07126757 0.038735963 0.06514435
-0.0043912884 0.009885743 0.023174565 0.021180216 -0.027562479 -0.062902234 0.0099422345 0.029068667
0.007394062 0.039124567 -0.08283923 0.014697096 -0.0045238575 -0.049896315 -0.0064494875 0.05879951
0.038348 0.043853763 0.009794021 0.018389713 0.02124487 0.008009427 -0.034371413 0.040050387
0.027727688 -0.02826226 0.030621132 -0.003799889 0.007750943 -0.034402464 -0.040240012 -0.03375049
-0.007690926 0.07062453 0.031364866 0.034642886 0.046309404 -0.05288559 -0.016664663 -0.033602167
0.0117748985 0.02028985 -0.0048317667 0.032383043 0.0020014844 0.021646399 -0.08900854 -0.004994178
0.031562522 0.040212847 -0.015017697 -0.063954055 -0.036484607 -0.032042187 0.039720334 0.004176968
-0.0008896155 -0.0255818 -0.0031468903 -0.02841467 -0.0033997926 -0.073439315 -0.07036852 0.0068783965
0.113374874 -0.004770505 0.070265576 0.037469283 -0.01578596 -0.004110668 0.01302265 0.08540224
0.06292564 0.02337812 -0.005047281 -0.019595865 0.075280055 -0.029142534 0.10072799 -0.012319119
-0.008606015 0.0033554416 -0.09753443 0.022269508 0.026965598 0.0050847447 -0.01890885 -0.029872755
0.018263403 0.04759884 -0.04256286 -0.050993197 -0.03609182 -0.0033191391 -0.0005565805 0.0099747935
0.037142728 0.015309786 -0.09394499 0.04209085 0.022492634 -0.0363694 -0.020998783 -0.04710762
0.084754 0.011528955 0.016223485 0.027743747 0.017937632 -0.06938653 -0.023841131 -0.043501467
0.009747909 0.028097503 -0.05611056 0.007305735 -0.048883025 -0.021901956 0.025643896 0.012742141
0.0003583751 0.029436728 0.029885937 0.028279394 0.0043515647 0.020485528 -0.029643299 0.058600437
-0.00753304 -0.09008369 0.044685565 0.001979901 0.019254655 0.10862012 0.034644358 -0.03824053
-0.025565531 -0.018582813 0.0189785 -0.027201407 0.01002344 -0.026066877 0.09861175 0.029684186
-0.006691346 -0.009557389 -0.012283783 0.029952897 0.01787872 0.013975883 -0.06834783 0.090820916
0.12030423 -0.032874346 -0.04219724 0.019636659 0.026448885 -0.12126442 0.03666442 0.043478325
-0.0095666265 -0.02813701 -0.020830235 -0.024816753 -0.02051969 -0.020680636 -0.02545017 0.028408425
0.04291409 -0.036825705 -0.030607441 0.055068213 -0.032259416 -0.0032770392 -0.015684577 0.06351563
-0.06251935 -0.026541874 0.018344317 -0.036198154 -0.057638094 -0.002522806 -0.045246176 0.013540287
-0.06820606 0.051895045 -0.010014132 -0.041836377 0.004379498 0.041314106 0.08706646 0.018506274
0.07226245 0.060376514 0.04937535 0.008229323 -0.06349381 -0.06917419 -0.007591128 -0.01991899

head.cls_conv.bias f4 [18]
00000000: b194 d93a 667c daba f184 d8ba a8a0 d83a
00000010: 091f d5ba 8ac3 dcba 528c d83a 076c e0ba
00000020: c358 d2ba a70c d43a 3ec7 c9ba 5011 ebba
00000030: 6482 dd3a 84eb e1ba 5214 daba 26c8 d23a
00000040: bf24 d1ba 0e03 d5ba
0.00166001 -0.0016669154 -0.0016519112 0.0016527371 -0.001625986 -0.0016842943 0.0016521311 -0.0017122038
-0.0016048182 0.0016178087 -0.0015394462 -0.0017934237 0.0016899821 -0.0017236327 -0.0016638136 0.0016081377
-0.0015956386 -0.0016251521

head.reg_conv.weight f4 [24, 128, 3, 3]
00000000: 540a 0dbd e70b 293c d809 163d 4697 a9bd
00000010: 054d 263c 0c7e 73bd f022 cabb 4223 a23d
00000020: b3f4 57bd a773 b6bb 4bc4 2ebb 2c65 423b
00000030: 56bd 08bd 4c77 cebc 3b5e 16bd b054 22bd
00000040: b21c 2cbd 9cda 30bd a67e 46bb 487a 60bd
00000050: 20e2 023d 8c02 033d 772e 263d d12f 463c
00000060: b26b 65bd e761 913c 94ac 9c3d d694 3cbd
00000070: 61ad 11bd b7b1 7a3d 869d 9d3c 1589 d63b
00000080: 8cbc acbc 863d 9a3c 7634 96bc dfc6 30bc
00000090: 37fa 40bd 3b9e ebbc a833 a5bc 5424 6e3c
000000a0: 0561 163b 3527 dbbc 6ea3 203d 02c8 813d
000000b0: 0c6c 463d 9a04 d3bc b658 4fbd 3b79 d23a
000000c0: f474 333c 62f0 893d 92f5 a83c 5419 1a3a
000000d0: a84e 8c3d 7d9a 963c 5b2f 6d3c b0ec dcbb
000000e0: 4c23 50bb 3312 2dbd 1e00 54bd 28c1 53bd
000000f0: 38f5 e3bc bca2 d33c e96b a1bd b746 4fbd
00000100: dc05 cfbd 9140 0d3c 1eaa 883d c961 fd3c
00000110: 1ded 723b 2779 b0bc bb02 e63b 2401 c13b
00000120: b037 773d 784b 99bb 5ef4 c83b 4818 76bb
00000130: 296e 063d 3b53 dfba 3529 253d c77b ae3c
00000140: d81e 6ebd 3b3b 2f3d b8bb 663d a625 b63a
00000150: 8e94 83bb 6f17 2abd bf9b af3c 4283 c9bd
00000160: cc81 b83c 10f4 da3c b4d5 563d cfc4 76bc
00000170: 862a 843c 1ad8 d1bb 3ef0 943c 62e4 fc3c
00000180: 63ba 81bb 294c 753d e713 fb3b a658 69bd
00000190: c546 1ebd 9686 8fbd 9bc8 a2bb 18fb 8ebc
000001a0: 5f19 4e3d dfb9 223d 4367 f9bc a4a6 ddbd
000001b0: ea1a e93c 5715 e7bc 1241 8fbd f6ff 793d
000001c0: 2708 70bd e653 5a3d 1f24 613d 7c54 a2bb
000001d0: 94a2 8fbc cca1 f7bc 20d9 75bc 71fd 9b3c
000001e0: 821a 8a3d 5366 21bd 5a2f 063d 938f 903d
000001f0: e915 c03b 69b8 3d3c dfa5 6f3d 94eb 20bc
00000200: 66a4 543d e3cf 4abd 2357 353d 9905 983c
00000210: e3a1 763d d84b 233d 249b c8bc 8013 f4bc
00000220: c290 793c 0ac2 0d3d c206 183d 0841 0fbd
00000230: 6e6b 2cbd 6797 a2bc 4840 223d 45ca fe3c
00000240: 3e8f fdbc e4ee 243c 0b05 3abc 8abe 023d
00000250: 49f0 29bc e4b5 31bd 995b 993c 2341 4bbc
00000260: 5e68 c63d c713 0d3d 482f a23c be38 203d
00000270: 3674 e4bc f15c 1a3d a7bc 853d 97f4 ac3d
00000280: 1d36 073c 83a9 90bb 53db 93bb b2b0 b1bc
00000290: b64e f73c a796 c73c a738 75bd 8032 8dbd
000002a0: e6e9 133c d5be 8a3d c76f 6d3d 5af0 9e3d
000002b0: 0297 10bd 88c1 743d 5b68 f9bc fa32 4abd
000002c0: 17bb 62bc 25d7 82bd 4056 85bd 218a b33c
000002d0: 1ff2 dd3c 4c27 95bc c868 143d e798 c93c
000002e0: e615 84bb 800e 03bd ca15 943d 56ae 14bd
000002f0: 0d3a 253d d79f eabc 77de 503d 12ff f5bc
00000300: 0723 233d 1b41 98bd eb7e 423d c22d cd3c
00000310: 79c2 b7bc f984 31bd d6f5 c0bc 98c6 1abc
00000320: 80a0 15bd 30a6 86bc 97ba 473b cffc 99bb
00000330: 5e33 4abd a033 c33b 9868 c93c 23dd 563c
00000340: f31e dabc 1638 103d 569f 873d 5a00 37bd
00000350: 67ad 89bd ae58 7c3d f1f8 10bd 4bf2 253d
00000360: d433 8e3c 64da d8bd 903d 6e3c 5fbc 373c
00000370: 545b 623c 2351 c0bc 28f1 8e3d c65f ddbd
00000380: d4c4 c03c b3ca 49bd c2a0 bd3c b29e 063e
00000390: 5a05 7ebc 4324 8a3d 19ff febc 2c9b 9a3c
000003a0: abe5 2d3c ad35 33bd c1aa a13c fae6 d2bc
000003b0: bcfc 56bd a087 ad3d 24ff 9dbd 5fe2 293d
000003c0: a990 1bbc 3335 103d c622 5dbb 3624 943c
000003d0: f207 95bc 8ccf 84bd ea99 49bc 0546 253d
000003e0: 2a2a 423c d80f aa3b 828f 88bd 87ba 523d
000003f0: 2256 8f3b 3320 e83c 4f94 da3c 38aa 143c
-0.034433678 0.010317779 0.03663048 -0.08280806 0.010150199 -0.05944638 -0.0061687157 0.07916881
-0.052723598 -0.005567986 -0.0026667293 0.0029662354 -0.03338369 -0.02520337 -0.03671096 -0.039631546
-0.042019553 -0.043177232 -0.003028789 -0.054804116 0.03195393 0.03198485 0.040571656 0.012096361
-0.05601091 0.017746879 0.07650104 -0.04604038 -0.035565738 0.06120464 0.019240152 0.006547103
-0.021086 0.018828165 -0.018335562 -0.010789602 -0.047113623 -0.028761974 -0.020166233 0.0145350285
0.0022946012 -0.026752094 0.03921836 0.063369766 0.048442885 -0.02575903 -0.05062171 0.0016057858
0.010953177 0.067353025 0.02062491 0.0005878408 0.0685094 0.018384213 0.014476622 -0.0067420825
-0.003175932 -0.042253684 -0.051757924 -0.05169788 -0.02782689 0.025834434 -0.0788191 -0.05060455
-0.101085395 0.008621351 0.06673072 0.030930417 0.00370676 -0.021542145 0.0070193685 0.0058900286
0.060355842 -0.004678186 0.0061326465 -0.0037551094 0.0328199 -0.0017038354 0.0403225 0.021299256
-0.058134884 0.042781096 0.056331366 0.0013896718 -0.004015512 -0.041526254 0.02143657 -0.098394886
0.02252283 0.026727706 0.052449897 -0.015061571 0.016133558 -0.006403935 0.018180963 0.03087062
-0.0039589866 0.059887085 0.0076622847 -0.056969307 -0.03864171 -0.07008092 -0.0049677617 -0.017453715
0.050317165 0.03972804 -0.030444747 -0.108228 0.028455216 -0.028208418 -0.06994833 0.06103512
-0.058601525 0.053302668 0.05496609 -0.004953919 -0.017533578 -0.030228518 -0.01500538 0.019041749
0.06743337 -0.039404225 0.03276 0.070586346 0.005861987 0.011579611 0.058507796 -0.009821791
0.051914595 -0.049514662 0.044272553 0.018557357 0.06021298 0.039867252 -0.02448804 -0.029794455
0.015232267 0.03460888 0.03711582 -0.034974128 -0.04209464 -0.019847585 0.039612085 0.031102309
-0.030952092 0.010066722 -0.011353741 0.031919993 -0.01037223 -0.043386355 0.018720435 -0.0124056665
0.09687875 0.03444269 0.019797936 0.039116614 -0.027887445 0.037686292 0.06530123 0.08445089
0.008252648 -0.0044147386 -0.0045122295 -0.0216907 0.0301889 0.024363829 -0.05986848 -0.06894398
0.009027934 0.067746796 0.057967927 0.07760687 -0.035300262 0.05975488 -0.030445268 -0.04936502
-0.013838551 -0.06388692 -0.065105915 0.021916451 0.027092991 -0.018207215 0.03623274 0.024609042
-0.004030931 -0.03199625 0.072307184 -0.036299072 0.040338565 -0.02864067 0.05099341 -0.030028854
0.039828327 -0.07434293 0.04748432 0.025046233 -0.022431599 -0.043339703 -0.023554724 -0.0094467625
-0.036530018 -0.016436666 0.0030476206 -0.0046993266 -0.049365394 0.005957082 0.024586007 0.013114247
-0.026626086 0.035209738 0.06622188 -0.04467807 -0.06722527 0.06160801 -0.03539366 0.04051427
0.017358698 -0.1058853 0.014541045 0.011214345 0.01381572 -0.023476189 0.06979591 -0.10809283
0.023531355 -0.049265575 0.023147944 0.13146475 -0.015504206 0.067451976 -0.0311275 0.01887282
0.010613839 -0.04375236 0.019734742 -0.025744904 -0.05248712 0.08473134 -0.0771468 0.04147565
-0.009494939 0.035206985 -0.003374265 0.018083673 -0.018192265 -0.06484899 -0.012304762 0.04034998
0.011850873 0.005189877 -0.06667997 0.051447418 0.0043742815 0.028335666 0.026682047 0.009073786

head.reg_conv.bias f4 [24]
00000000: 741e ed3a 6b1d b03a 9052 bb3a aee7 7eba
00000010: 2ba3 f2ba ea8b eab9 b437 ca3a f475 7a3a
00000020: da62 76ba ace4 213a 921f 4bba 8eb3 d0ba
00000030: 1ee3 cd3a db2c 27ba dfd6 c23a 9393 b4ba
00000040: 25c3 d63a 898b d9ba e953 66b9 2bf5 edba
00000050: 38b5 af3a a445 a93a 8177 c1ba 10c7 89ba
0.0018090741 0.0013436502 0.0014291573 -0.0009723854 -0.0018511763 -0.00044736202 0.0015427978 0.00095543195
-0.00093988853 0.00061757374 -0.000774854 -0.0015922652 0.0015707945 -0.00063772284 0.0014865062 -0.0013776891
0.0016385062 -0.0016597371 -0.00021965768 -0.0018154731 0.0013405448 0.0012914431 -0.0014760346 -0.0010511596
